name: "VGG16"

input: "data"
input_shape {
  dim: 1
  dim: 3
  dim: 224
  dim: 224
}

input: "rois"
input_shape {
  dim: 1
  dim: 5
}

input: "masks"
input_shape {
  dim: 1
  dim: 1
  dim: 14
  dim: 14
}

layer {
  name: "conv1_1"
  type: "Convolution"
  bottom: "data"
  top: "conv1_1"
  param {
    lr_mult: 0
    decay_mult: 0
  }
  param {
    lr_mult: 0
    decay_mult: 0
  }
  convolution_param {
    num_output: 64
    pad: 1
    kernel_size: 3
  }
}
layer {
  name: "relu1_1"
  type: "ReLU"
  bottom: "conv1_1"
  top: "conv1_1"
}
layer {
  name: "conv1_2"
  type: "Convolution"
  bottom: "conv1_1"
  top: "conv1_2"
  param {
    lr_mult: 0
    decay_mult: 0
  }
  param {
    lr_mult: 0
    decay_mult: 0
  }
  convolution_param {
    num_output: 64
    pad: 1
    kernel_size: 3
  }
}
layer {
  name: "relu1_2"
  type: "ReLU"
  bottom: "conv1_2"
  top: "conv1_2"
}
layer {
  name: "pool1"
  type: "Pooling"
  bottom: "conv1_2"
  top: "pool1"
  pooling_param {
    pool: MAX
    kernel_size: 2
    stride: 2
  }
}
layer {
  name: "conv2_1"
  type: "Convolution"
  bottom: "pool1"
  top: "conv2_1"
  param {
    lr_mult: 0
    decay_mult: 0
  }
  param {
    lr_mult: 0
    decay_mult: 0
  }
  convolution_param {
    num_output: 128
    pad: 1
    kernel_size: 3
  }
}
layer {
  name: "relu2_1"
  type: "ReLU"
  bottom: "conv2_1"
  top: "conv2_1"
}
layer {
  name: "conv2_2"
  type: "Convolution"
  bottom: "conv2_1"
  top: "conv2_2"
  param {
    lr_mult: 0
    decay_mult: 0
  }
  param {
    lr_mult: 0
    decay_mult: 0
  }
  convolution_param {
    num_output: 128
    pad: 1
    kernel_size: 3
  }
}
layer {
  name: "relu2_2"
  type: "ReLU"
  bottom: "conv2_2"
  top: "conv2_2"
}
layer {
  name: "pool2"
  type: "Pooling"
  bottom: "conv2_2"
  top: "pool2"
  pooling_param {
    pool: MAX
    kernel_size: 2
    stride: 2
  }
}
layer {
  name: "conv3_1"
  type: "Convolution"
  bottom: "pool2"
  top: "conv3_1"
  param {
    lr_mult: 1
    decay_mult: 1
  }
  param {
    lr_mult: 2
    decay_mult: 0
  }
  convolution_param {
    num_output: 256
    pad: 1
    kernel_size: 3
  }
}
layer {
  name: "relu3_1"
  type: "ReLU"
  bottom: "conv3_1"
  top: "conv3_1"
}
layer {
  name: "conv3_2"
  type: "Convolution"
  bottom: "conv3_1"
  top: "conv3_2"
  param {
    lr_mult: 1
    decay_mult: 1
  }
  param {
    lr_mult: 2
    decay_mult: 0
  }
  convolution_param {
    num_output: 256
    pad: 1
    kernel_size: 3
  }
}
layer {
  name: "relu3_2"
  type: "ReLU"
  bottom: "conv3_2"
  top: "conv3_2"
}
layer {
  name: "conv3_3"
  type: "Convolution"
  bottom: "conv3_2"
  top: "conv3_3"
  param {
    lr_mult: 1
    decay_mult: 1
  }
  param {
    lr_mult: 2
    decay_mult: 0
  }
  convolution_param {
    num_output: 256
    pad: 1
    kernel_size: 3
  }
}
layer {
  name: "relu3_3"
  type: "ReLU"
  bottom: "conv3_3"
  top: "conv3_3"
}
layer {
  name: "pool3"
  type: "Pooling"
  bottom: "conv3_3"
  top: "pool3"
  pooling_param {
    pool: MAX
    kernel_size: 2
    stride: 2
  }
}
layer {
  name: "conv4_1"
  type: "Convolution"
  bottom: "pool3"
  top: "conv4_1"
  param {
    lr_mult: 1
    decay_mult: 1
  }
  param {
    lr_mult: 2
    decay_mult: 0
  }
  convolution_param {
    num_output: 512
    pad: 1
    kernel_size: 3
  }
}
layer {
  name: "relu4_1"
  type: "ReLU"
  bottom: "conv4_1"
  top: "conv4_1"
}
layer {
  name: "conv4_2"
  type: "Convolution"
  bottom: "conv4_1"
  top: "conv4_2"
  param {
    lr_mult: 1
    decay_mult: 1
  }
  param {
    lr_mult: 2
    decay_mult: 0
  }
  convolution_param {
    num_output: 512
    pad: 1
    kernel_size: 3
  }
}
layer {
  name: "relu4_2"
  type: "ReLU"
  bottom: "conv4_2"
  top: "conv4_2"
}
layer {
  name: "conv4_3"
  type: "Convolution"
  bottom: "conv4_2"
  top: "conv4_3"
  param {
    lr_mult: 1
    decay_mult: 1
  }
  param {
    lr_mult: 2
    decay_mult: 0
  }
  convolution_param {
    num_output: 512
    pad: 1
    kernel_size: 3
  }
}
layer {
  name: "relu4_3"
  type: "ReLU"
  bottom: "conv4_3"
  top: "conv4_3"
}
layer {
  name: "pool4"
  type: "Pooling"
  bottom: "conv4_3"
  top: "pool4"
  pooling_param {
    pool: MAX
    kernel_size: 2
    stride: 2
  }
}
layer {
  name: "conv5_1"
  type: "Convolution"
  bottom: "pool4"
  top: "conv5_1"
  param {
    lr_mult: 1
    decay_mult: 1
  }
  param {
    lr_mult: 2
    decay_mult: 0
  }
  convolution_param {
    num_output: 512
    pad: 1
    kernel_size: 3
  }
}
layer {
  name: "relu5_1"
  type: "ReLU"
  bottom: "conv5_1"
  top: "conv5_1"
}
layer {
  name: "conv5_2"
  type: "Convolution"
  bottom: "conv5_1"
  top: "conv5_2"
  param {
    lr_mult: 1
    decay_mult: 1
  }
  param {
    lr_mult: 2
    decay_mult: 0
  }
  convolution_param {
    num_output: 512
    pad: 1
    kernel_size: 3
  }
}
layer {
  name: "relu5_2"
  type: "ReLU"
  bottom: "conv5_2"
  top: "conv5_2"
}
layer {
  name: "conv5_3"
  type: "Convolution"
  bottom: "conv5_2"
  top: "conv5_3"
  param {
    lr_mult: 1
    decay_mult: 1
  }
  param {
    lr_mult: 2
    decay_mult: 0
  }
  convolution_param {
    num_output: 512
    pad: 1
    kernel_size: 3
  }
}
layer {
  name: "relu5_3"
  type: "ReLU"
  bottom: "conv5_3"
  top: "conv5_3"
}

#-------- Box Feature --------

layer {
  name: "roi_pooling_conv5"
  type: "ROIPooling"
  bottom: "conv5_3"
  bottom: "rois"
  top: "roi_pooling_conv5"
  roi_pooling_param {
    pooled_w: 7
    pooled_h: 7
    spatial_scale: 0.0625 # 1/16
  }
}

layer {
  name: "fc6"
  type: "InnerProduct"
  bottom: "roi_pooling_conv5"
  top: "fc6"
  inner_product_param {
    num_output: 4096
  }
}

layer {
  name: "relu6"
  type: "ReLU"
  bottom: "fc6"
  top: "fc6"
}

layer {
  name: "fc7"
  type: "InnerProduct"
  bottom: "fc6"
  top: "fc7"
  inner_product_param {
    num_output: 4096
  }
}

layer {
  name: "relu7"
  type: "ReLU"
  bottom: "fc7"
  top: "fc7"
}

# -------- Mask Feature --------

layer {
  name: "roi_pooling_conv5_mask"
  type: "ROIPooling"
  bottom: "conv5_3"
  bottom: "rois"
  top: "roi_pooling_conv5_mask"
  roi_pooling_param {
    pooled_w: 14
    pooled_h: 14
    spatial_scale: 0.0625 # 1/16
  }
}

layer {
  name: "mask_pooling"
  type: "MaskPooling"
  bottom: "roi_pooling_conv5_mask"
  bottom: "masks"
  top: "roi_mask_conv5"
}

layer {
  name: "roi_mask_conv5"
  type: "Pooling"
  bottom: "roi_mask_conv5"
  top: "roi_mask_conv5_pool"
  pooling_param {
    kernel_size: 2
    stride: 2
    pad: 0
    pool: MAX
  }
}

layer {
  name: "fc6_mask"
  type: "InnerProduct"
  bottom: "roi_mask_conv5_pool"
  top: "fc6_mask"
  inner_product_param {
    num_output: 4096
  }
}

layer {
  name: "relu6_mask"
  type: "ReLU"
  bottom: "fc6_mask"
  top: "fc6_mask"
}

layer {
  name: "fc7_mask"
  type: "InnerProduct"
  bottom: "fc6_mask"
  top: "fc7_mask"
  inner_product_param {
    num_output: 4096
  }
}

layer {
  name: "relu7_mask"
  type: "ReLU"
  bottom: "fc7_mask"
  top: "fc7_mask"
}


# -------- Mask Estimation --------

layer {
  name: "fc6_maskest"
  type: "InnerProduct"
  bottom: "roi_pooling_conv5_mask"
  top: "fc6_maskest"
  inner_product_param {
    num_output: 256
  }
}

layer {
  name: "relu6_maskest"
  type: "ReLU"
  bottom: "fc6_maskest"
  top: "fc6_maskest"
}

layer {
  name: "mask_pred"
  type: "InnerProduct"
  bottom: "fc6_maskest"
  top: "mask_pred"
  inner_product_param {
    num_output: 441 # 21 * 21
  }
}

layer {
  name: "mask_prob"
  type: "Sigmoid"
  bottom: "mask_pred"
  top: "mask_prob"
}

# ----- Concat Box-Mask Feature -----

layer {
  name: "join_box_mask"
  type: "Concat"
  bottom: "fc7_mask"
  bottom: "fc7"
  top: "join_box_mask"
  concat_param {
    axis: 1
  }
}

# ---- Box Classification ----

layer {
  name: "cls_score"
  type: "InnerProduct"
  bottom: "join_box_mask"
  top: "cls_score"
  inner_product_param {
    num_output: 21
  }
}

layer {
  name: "cls_prob"
  type: "Softmax"
  bottom: "cls_score"
  top: "cls_prob"
  loss_param {
    ignore_label: -1
    normalize: true
  }
}

# ---- Mask Classification ----

layer {
  name: "seg_cls_score"
  type: "InnerProduct"
  bottom: "join_box_mask"
  top: "seg_cls_score"
  inner_product_param {
    num_output: 21
  }
}
layer {
  name: "seg_cls_prob"
  type: "Softmax"
  bottom: "seg_cls_score"
  top: "seg_cls_prob"
  loss_param {
    ignore_label: -1
    normalize: true
  }
}

layer {
  name: "bbox_pred"
  type: "InnerProduct"
  bottom: "join_box_mask"
  top: "bbox_pred"
  inner_product_param {
    num_output: 84
  }
}
